place_detector/code/model_svm_linear.pkl_02.npy (npy, 98384 bytes, 1 tensors)

array (column-major) f8 [3, 4096]
0	0x3f731f1c35e551b4	0.0046683408712237424
1	0x3f3f1bd72c3f8972	0.0004746818851783164
2	0xbf6b4341025a8d78	-0.0033279676161598847
3	0x3f79031afc510b6d	0.00610647717718647
4	0xbf6507bb6c81e2eb	-0.002567163526745344
5	0xbf7cc8fc9c5f67f1	-0.0070276134119584424
6	0xbf1d6ef619a32e08	-0.00011227967334830763
7	0x3f1e23c8ee4ef1f2	0.00011497415432776945
8	0xbf4b1003ae0ecf78	-0.000825883671601065
9	0xbf4e63042c30b5bb	-0.0009273310064423149
10	0x3f34539fb4ed28a5	0.0003101601513903019
11	0x3f2d9d20e5219443	0.00022593523550820853
12	0x3f5e27a64862bbb8	0.0018405078749699055
13	0xbf63af46574551de	-0.0024029134603244925
14	0x3f4b1e63613c86c5	0.0008275971654010053
15	0xbf1f11bf8eb7832a	-0.00011852008508795851
16	0x3f2b6ee6ae202bcb	0.00020929876251360303
17	0xbf1bc7f03ee27906	-0.000105976141386386
18	0xbf681acf52bca746	-0.002942471435649549
19	0x3f4508435c7a9456	0.0006418541824656603
20	0x3f44c8f076081c2d	0.0006343053938174852
21	0x3f519248fd6db1c6	0.0010724747459916902
22	0xbf5c3ebea87916f4	-0.001723943891094701
23	0xbf50997152dccc3d	-0.0010131460835054583
24	0xbf65eb6f0ad3487f	-0.0026757401270539045
25	0xbf632d4136e6e205	-0.002340915081017638
26	0x3f795e4b80942438	0.0061934422785805895
27	0xbf4a32cbdaa329c9	-0.0007995124226678969
28	0x3f5fd7f114826718	0.0019435743616100284
29	0xbf615a9f2d5bebc4	-0.0021184071473476524
30	0xbf554299c5d66017	-0.0012976171195529013
31	0x3f67d3f57eb84ef7	0.0029086870979514417
32	0xbf52dbedd9a3ca14	-0.001151067996542414
33	0xbf6b46201cec6442	-0.0033293368536644616
34	0xbf5594987f67c610	-0.001317166255486394
35	0x3f67ffcefb6ed34b	0.002929596197157746
36	0x3f6864fc6ca58e9e	0.0029778413929067568
37	0xbf5ac8c210e02e63	-0.0016347785162932553
38	0xbf6a7d29507143b8	-0.0032335097235222897
39	0x3f601d4cbac8b030	0.001967096197651251
40	0xbf590e4621023a5d	-0.0015292820790226071
41	0xbf5d90db0f9db0ad	-0.0018045558230950596
42	0xbf37809726336fad	-0.0003586167351394786
43	0x3f03d0bb71b1a01c	3.7794800129387264e-05
44	0xbf35c8b6c32414e8	-0.0003323980519243778
45	0xbf6d1ff36e0a22e0	-0.0035552744378189866
46	0x3f73dd3a513b3e0e	0.004849651147835766
47	0xbf69259f542b7d21	-0.0030696975603487085
48	0x0000000000000000	0.0
49	0x0000000000000000	0.0
50	0x0000000000000000	0.0
51	0xbf5ca9c3c95a3595	-0.0017494594552859056
52	0xbf6fb2937041578f	-0.003869331327261478
53	0x3f7bd71a85550115	0.00679693565081176
54	0xbf6910aab654156a	-0.003059705183320706
55	0xbf6314d458c3dcc3	-0.0023292682072867123
56	0x3f6c9ca75c81d55f	0.003492667081497799
57	0xbf39fde4c4104a8f	-0.0003966029653962666
58	0x3f451a831cb1c066	0.0006440296359766617
59	0x3f601d7273e1979a	0.0019671664622817444
60	0x3f5802ea8225f427	0.0014655389901172629
61	0xbf6635d57c9ae546	-0.0027112168944226937
62	0x3f53410786af0ed9	0.0011751721856265078
63	0xbf1a22d8f1e9b5dc	-9.970139624623043e-05
64	0x3f302ca58a11f2a6	0.0002468017720003525
65	0xbf09bdca757a5342	-4.909776788256669e-05
66	0xbf481c4dd5cefb60	-0.0007357959799419826
67	0x3f4dadd1ca4b6767	0.000905730663897969
68	0xbf4313eb6aa98671	-0.0005822085852964077
69	0x0000000000000000	0.0
70	0x0000000000000000	0.0
71	0x0000000000000000	0.0
72	0xbf5ea7062ba3c036	-0.0018708763369055365
73	0x3f51133cbe7a4004	0.0010421841815606578
74	0xbf421b37481fe5db	-0.0005525607996325581
75	0xbf47879860e4765c	-0.0007180685077263316
76	0xbf42c985022cd38b	-0.0005733394103574081
77	0x3f4e7888ca9f3d68	0.0009298961569984944
78	0x3f7c3baeee5b648d	0.006892855953730803
79	0xbf59f446ce513c70	-0.0015841189827090728
80	0xbf6d535ee2d2042e	-0.003579793285610331
81	0xbf50aa6aa342a38c	-0.0010171929725777155
82	0xbf63c4006ec3414d	-0.0024127968264126332
83	0x3f636107878398a7	0.0023656031663562174
84	0x3f71812f1a1e9f58	0.004273590080550914
85	0xbf369ad05839072b	-0.00034492098368242807
86	0xbf6ea8c33375b620	-0.0037425816078016233
87	0xbf60ddcd24ac47cc	-0.002058888121049462
88	0x3f84404bb83fffd2	0.009888259468425451
89	0xbf82ece8f639f11e	-0.009240932478171756
90	0x3f7ba0e5b14d1642	0.006745240437174229
91	0xbf7ae9c3494d49d8	-0.006570589864014008
92	0x3f5e6d4e0876b778	0.0018571149865737862
93	0xbf64a55915877d81	-0.0025202503131677716
94	0xbf6397cce4858d75	-0.0023917199907132433
95	0x3f6cbf6bd1033ece	0.003509245471015144
96	0xbf5c32c764d173af	-0.0017210910039217977
97	0xbf532779b73e09ac	-0.001169079649998221
98	0x3f63774995045893	0.002376216616663271
99	0xbf4c674da3519f17	-0.0008668068973180812
100	0x3f43055ddfbe0e9d	0.0005804737443075473
101	0xbf33ef8214ad00d7	-0.0003041927890770185
102	0x3ed173c24736bb17	4.160924720704774e-06
103	0xbf09440996fea137	-4.819063440148141e-05
104	0x3efd075727d31448	2.768390048825769e-05
105	0x3f7e9be0faa1b374	0.007472876381240268
106	0xbf7263c339fe5995	-0.0044896722828497064
107	0xbf6b0ed86488740f	-0.0033029772205410766
108	0xbf63e5801bcd67cf	-0.0024287702675964483
109	0x3f05fedbfd2c3e2f	4.195317128196892e-05
110	0x3f5bf04b712c2e5e	0.0017052399386469279
111	0x3f416445b62d5e80	0.0005307522190873409
112	0xbf15029d8f1c30e1	-8.014761604275028e-05
113	0xbf101987d3ad6e86	-6.141559144395335e-05
114	0xbf578704f9f6b4b2	-0.0014359997365816332
115	0x3f59a29e3de69898	0.0015646500902249168
116	0xbf548bf8aaf800ac	-0.0012540748974743483
117	0x3ec7177043a73177	2.752728076793421e-06
118	0xbb93d00000000000	-1.048865016717239e-21
119	0xbf0a2af5742dabe2	-4.991113248461306e-05
120	0xbee09aae485595b3	-7.917509956721332e-06
121	0xbf7208ae96d24d4c	-0.004402811039784748
122	0x3f77ac3df6809780	0.005779497187210825
123	0xbf74c5395c2f8fab	-0.005070900023358786
124	0x3f7f3948b45d0578	0.007622989656569039
125	0xbf64e38e16e5430c	-0.002549912947110383
126	0xbf2662dcb28981c8	-0.00017079299984158595
127	0x3f22d2e287cc6bc3	0.00014361396088066581
128	0xbf3e65359d992952	-0.0004637962243562349
129	0xbf7f02172b7c696e	-0.007570353038114026
130	0xbf5c7a2c521434a9	-0.0017381127184450762
131	0x3f78316cda3ea995	0.005906510548735607
132	0x3f508a0b1ece6b3a	0.001009474620537089
133	0xbf540692f4193994	-0.0012222704975957998
134	0x3f4056c8c87acdca	0.0004986267458292834
135	0x3f76969419aba362	0.0055146966139794935
136	0xbf716997db989c49	-0.004251092142602061
137	0xbf722fd04c8ae221	-0.004440129917093334
138	0x3f20c84a523f2f47	0.00012803942911287556
139	0x3f1d8d002ffed3a2	0.00011272729534435183
140	0xbf37aa9dba44a3ce	-0.00036112166187024237
141	0x3f635febcdf0780c	0.002365074687545215
142	0xbf54aba9dab330a9	-0.0012616308911673013
143	0xbf640f5ab0519df5	-0.002448727728324713
144	0x3f5b5c7f3d148f34	0.0016700022282031936
145	0xbf518306bbc25ece	-0.0010688367611119578
146	0xbf546775b317569d	-0.001245369854918555
147	0x3f56b99c7f10d74e	0.001387026623218063
148	0xbf5a59295a8e510c	-0.0016081718297061313
149	0x3f41c011f172e4f9	0.0005416953671534545
150	0xbf3c52f4145448cc	-0.0004321905037879658
151	0x3f3b582a62f00b54	0.0004172423822980571
152	0x3eea776c0c2a1817	1.2620207035195963e-05
153	0xbf76b2afbb20a1a1	-0.005541502427185569
154	0x3f6d3131c15483bd	0.0035634967595261345
155	0xbf4e0293e6f75e85	-0.0009158346346635626
156	0xbf0a93eb94e4eab3	-5.0693156128341596e-05
157	0xbed8c8001c5cc2c2	-5.908310816413785e-06
158	0x3f256fd2fb4ec16d	0.0001635499044403509
159	0x3f63485f07b80916	0.0023538452203421085
160	0x3f74167cc07665c8	0.004904258071655794
161	0xbf8398ecc907105f	-0.009569024929881374
162	0x3f3cb1afd88e5676	0.0004378370581944244
163	0x3f609f6081d719a4	0.0020291218668006695
164	0xbf721264abe3d99d	-0.004412072418054439
165	0xbf3b6b296d2ac70c	-0.0004183746470217554
166	0xbeefa9a1dae05e17	-1.5097916584535247e-05
167	0x3f44168c7341e1f7	0.0006130395691022462
168	0xbf7f18b65d46108f	-0.007591926918738902
169	0x3f7a59001e8c8c89	0.006432533708706897
170	0xbf4f615782ad2f79	-0.0009576489731926006
171	0xbf7b60407012a061	-0.0066835896588274
172	0x3f3a1e3437e0425f	0.00039852881298066927
173	0x3f767151e7371462	0.005479164060891413
174	0x3f53e2c326da08f6	0.0012137323168706616
175	0xbf50d11aac51d3a4	-0.001026416824314349
176	0x3f28659a6d798f75	0.00018613348105411443
177	0x3f72591f6a83d974	0.004479525298157195
178	0xbf66a41b37528c2a	-0.002763798862888152
179	0x3f4cd14582f76fd1	0.0008794392978717041
180	0xbf4423334208b206	-0.0006145477564750152
181	0xbf25773cec975d7a	-0.00016377085402894867
182	0x3f130db19d19a645	7.268330161882507e-05
183	0xbf62a3d05a760b88	-0.0022753781701693766
184	0x3f72dfdc020586df	0.00460802021584225
185	0xbf618b3a1840b2f0	-0.002141583887370728
186	0xbf63f85f07c38563	-0.0024377685605122975
187	0xbf155556ae0d6827	-8.13802867133678e-05
188	0x3f36dd3d77d3bfe3	0.0003488802975217793
189	0x3f7cfd2cf83e709a	0.007077384627248185
190	0xbf6263b25c7a55d5	-0.002244804727363751
191	0xbf6d96c65e8c6a7b	-0.0036119341279008932
192	0xbf597f4303fa19da	-0.0015562204788764828
193	0x3f617c2ad305469d	0.00213440288659046
194	0xbf383c038e6d12f7	-0.00036978804421421103
195	0xbf3a02b8a8eb6e9e	-0.00039689071938451583
196	0x3f389b86ae77124d	0.0003754810154215402
197	0x3f308047862bd03e	0.0002517866725348961
198	0xbf5a53f1b70e0319	-0.0016069279192551576
199	0xbf512200a9617cbe	-0.001045704504143249
200	0x3f7081f7c0010dfe	0.0040301969275478005
201	0x3f62321ffd0e9fff	0.002221167066142726
202	0x3f636f359265740f	0.0023723646474267455
203	0xbf6c47152a2ac7a5	-0.0034518636105866523
204	0xbf4a9f709b1b4904	-0.0008124637444899834
205	0xbf6e1b1266eaf258	-0.0036750182547094327
206	0x3f749f4835b2159d	0.005034715718584518
207	0xbf5d3708f24d3304	-0.001783140885169122
208	0xbee2f2cefc5c4109	-9.035334993551696e-06
209	0x3f54baa1e5bf9021	0.0012651997594668246
210	0xbf43ea66db23e5d3	-0.0006077768541949364
211	0x3f78e21a084308c8	0.006075002373281353
212	0xbf7734ef666b9010	-0.005665717274244045
213	0xbf376ff34ba8fcea	-0.00035762491066644467
214	0xbf1954739692b5f9	-9.662585729826996e-05
215	0x3ef48581fedb7b29	1.9570841621847877e-05
216	0x3f6af34c1d23094e	0.0032898413274732646
217	0xbf571733cc9c6162	-0.0014093404628906171
218	0xbf695452d3374291	-0.0030919664074889404
219	0xbf6cc2b2e8f25d50	-0.0035108084044385493
220	0xbf372f7009f9e334	-0.0003537796528472637
221	0x3f73005cb7bb2c69	0.004639017275347526
222	0x3f814b2fc87158e2	0.008444188408401169
223	0xbf7a33aa0bcca50e	-0.006396927111191232
224	0xbf729631dd4eabfa	-0.004537768157130801
225	0x3f25ea0829d3cfc8	0.00016719197893843977
226	0x3ba02c0000000000	1.7122638679847673e-21
227	0xbf2a847cfc592f94	-0.00020231271462234064
228	0x3f604f493b1e3554	0.001990931538734012
229	0xbf5e0e826363b776	-0.0018345139811190825
230	0xbf3b5fdcb8314c59	-0.0004177011362049336
231	0xbf83fd7b9fc46c2b	-0.009760824025354683
232	0xbf897dd27d9e6331	-0.012447018107012294
233	0x3f955189401728b8	0.02081884816815524
234	0xbf37a2f7bd219ee9	-0.0003606657820740393
235	0x3f51b4e4770826ad	0.0010807257750706054
236	0x3f3489d86ead4a66	0.0003133920096633269
237	0xbf2ec0b72fb71b35	-0.0002346252075382194
238	0xbf628ee640394518	-0.0022654053771381626
239	0x3f5e29dbd8e82683	0.0018410345979894833
240	0x3f551e07a9dba83c	0.0012888979758210036
241	0xbf4d93ce5f1af62d	-0.0009026296304097174
242	0x3f2fdde61b989f5c	0.00024312433178974135
243	0xbf21e3d116bbf6b7	-0.00013648917535385104
244	0x3f3ad9d91e47fc1a	0.000409713275331515
245	0xbf49f13a967cfc40	-0.000791696173997887
246	0xbf515eee196c8420	-0.0010602307499498823
247	0xbf51694fc08e7294	-0.0010627058820552914
248	0x3f621d00d181bf26	0.0022110954269506542
249	0xbf4b6d136d092c7d	-0.0008369774678355226
250	0xbf5637b024c57110	-0.00135605050589677
251	0x3f5d9b80bdafa00f	0.0018070943103740721
252	0xbf800fd19ff28e95	-0.007842672055921521
253	0xbf70fcd9d34e9ddd	-0.004147387390652094
254	0x3f857c9818cdf28b	0.010491550690624926
255	0x3f4b788866d8f494	0.0008383432411346475
